…
Max ofa_resnet target value: 0.7994
Min ofa_resnet target value: 0.75248
Avg ofa_resnet target value: 0.7819411822222215
Max global target value: 0.9466606903076172
Min global target value: 0.09995993723471959
Avg global target value: 0.8852264431691655
Train size: 56000
Dev size: 7000
Test size: 7000
Max num nodes: 1334
Min num nodes: 54
Avg num nodes: 288.4478571428571
0 overlap(s) between train/dev loaders
0 overlap(s) between train/test loaders
0 overlap(s) between dev/test loaders
Initializing gpi_acc_predictor_CL_dropout_encoder_model_seed109
GraphAutoEncoder(
  (embed_layer): CGNodeEmbedding(
    (regular_embed_layer): Embedding(32, 120)
    (weighted_embed_layer): Embedding(32, 110)
    (kernel_embed_layer): Embedding(8, 4)
    (shape_embed_layer): Linear(in_features=6, out_features=8, bias=True)
    (bias_embed_layer): Linear(in_features=2, out_features=2, bias=True)
  )
  (encoder): PreEmbeddedGraphEncoderWithAttention(
    (gnn_layers): ModuleList(
      (0): GINConv(nn=Sequential(
        (0): Linear(in_features=128, out_features=128, bias=True)
        (1): Linear(in_features=128, out_features=128, bias=True)
      ))
      (1): GINConv(nn=Sequential(
        (0): Linear(in_features=128, out_features=128, bias=True)
        (1): Linear(in_features=128, out_features=128, bias=True)
      ))
      (2): GINConv(nn=Sequential(
        (0): Linear(in_features=128, out_features=128, bias=True)
        (1): Linear(in_features=128, out_features=128, bias=True)
      ))
      (3): GINConv(nn=Sequential(
        (0): Linear(in_features=128, out_features=128, bias=True)
        (1): Linear(in_features=128, out_features=128, bias=True)
      ))
      (4): GINConv(nn=Sequential(
        (0): Linear(in_features=128, out_features=128, bias=True)
        (1): Linear(in_features=128, out_features=128, bias=True)
      ))
      (5): GINConv(nn=Sequential(
        (0): Linear(in_features=128, out_features=128, bias=True)
        (1): Linear(in_features=128, out_features=128, bias=True)
      ))
    )
    (activ): ReLU()
    (dropout): Dropout(p=0.4, inplace=False)
    (dropout_attn): Dropout(p=0.2, inplace=False)
    (init_ff): Linear(in_features=256, out_features=128, bias=True)
    (att_mechanism): DoubleHeadedAttention(
      (query_layer): Linear(in_features=128, out_features=128, bias=True)
      (key_layer): Linear(in_features=128, out_features=128, bias=True)
      (value_layer): Linear(in_features=128, out_features=128, bias=True)
      (output_layer): Linear(in_features=128, out_features=128, bias=True)
    )
    (combination_layer): Linear(in_features=256, out_features=128, bias=True)
  )
  (projection_layer): Linear(in_features=256, out_features=64, bias=False)
)
Model name: gpi_acc_predictor_CL_dropout_encoder_model_seed109
Number of trainable parameters: 353822
Training for 100 epochs
Model name: gpi_acc_predictor_CL_dropout_encoder_model_seed109
Saved models dir: /home/ec2-user/nas-rec-engine/saved_models
Log dir: /home/ec2-user/nas-rec-engine/logs
Params: Namespace(device_str=None, seed=109, max_gradient_
…
Max ofa_resnet target value: 0.7994
Min ofa_resnet target value: 0.75248
Avg ofa_resnet target value: 0.7819411822222215
Max global target value: 0.9437333333333333
Min global target value: 0.09995993723471959
Avg global target value: 0.8787893355136353
Train size: 51278
Dev size: 6409
Test size: 6409
Max num nodes: 336
Min num nodes: 54
Avg num nodes: 191.45590988517225
0 overlap(s) between train/dev loaders
0 overlap(s) between train/test loaders
0 overlap(s) between dev/test loaders
Initializing gpi_acc_predictor_CL_dropout_encoder_model_seed109
GraphAutoEncoder(
  (embed_layer): CGNodeEmbedding(
    (regular_embed_layer): Embedding(32, 120)
    (weighted_embed_layer): Embedding(32, 110)
    (kernel_embed_layer): Embedding(8, 4)
    (shape_embed_layer): Linear(in_features=6, out_features=8, bias=True)
    (bias_embed_layer): Linear(in_features=2, out_features=2, bias=True)
  )
  (encoder): PreEmbeddedGraphEncoderWithAttention(
    (gnn_layers): ModuleList(
      (0): GINConv(nn=Sequential(
        (0): Linear(in_features=128, out_features=128, bias=True)
        (1): Linear(in_features=128, out_features=128, bias=True)
      ))
      (1): GINConv(nn=Sequential(
        (0): Linear(in_features=128, out_features=128, bias=True)
        (1): Linear(in_features=128, out_features=128, bias=True)
      ))
      (2): GINConv(nn=Sequential(
        (0): Linear(in_features=128, out_features=128, bias=True)
        (1): Linear(in_features=128, out_features=128, bias=True)
      ))
      (3): GINConv(nn=Sequential(
        (0): Linear(in_features=128, out_features=128, bias=True)
        (1): Linear(in_features=128, out_features=128, bias=True)
      ))
      (4): GINConv(nn=Sequential(
        (0): Linear(in_features=128, out_features=128, bias=True)
        (1): Linear(in_features=128, out_features=128, bias=True)
      ))
      (5): GINConv(nn=Sequential(
        (0): Linear(in_features=128, out_features=128, bias=True)
        (1): Linear(in_features=128, out_features=128, bias=True)
      ))
    )
    (activ): ReLU()
    (dropout): Dropout(p=0.4, inplace=False)
    (dropout_attn): Dropout(p=0.2, inplace=False)
    (init_ff): Linear(in_features=256, out_features=128, bias=True)
    (att_mechanism): DoubleHeadedAttention(
      (query_layer): Linear(in_features=128, out_features=128, bias=True)
      (key_layer): Linear(in_features=128, out_features=128, bias=True)
      (value_layer): Linear(in_features=128, out_features=128, bias=True)
      (output_layer): Linear(in_features=128, out_features=128, bias=True)
    )
    (combination_layer): Linear(in_features=256, out_features=128, bias=True)
  )
  (decoder): TransformerDecoder(
    (dropout): Dropout(p=0.2, inplace=False)
    (embedding): Embedding(128, 256)
    (attention_layers): ModuleList(
      (0): MultiheadAttention(
        (out_proj): NonDynamicallyQuantizableLinear(in_features=256, out_features=256, bias=True)
      )
      (1): MultiheadAttention(
        (out_proj): NonDynamicallyQuantizableLinear(in_features=256, out_features=256, bias=True)
      )
      (2): MultiheadAttention(
        (out_proj): NonDynamicallyQuantizableLinear(in_features=256, out_features=256, bias=True)
      )
    )
    (encoder_attention_layers): ModuleList(
      (0): MultiheadAttention(
        (out_proj): NonDynamicallyQuantizableLinear(in_features=256, out_features=256, bias=True)
      )
      (1): MultiheadAttention(
        (out_proj): NonDynamicallyQuantizableLinear(in_features=256, out_features=256, bias=True)
      )
      (2): MultiheadAttention(
        (out_proj): NonDynamicallyQuantizableLinear(in_features=256, out_features=256, bias=True)
      )
    )
    (feedforward_layers): ModuleList(
      (0): Sequential(
        (0): Linear(in_features=256, out_features=1024, bias=True)
        (1): ReLU()
        (2): Linear(in_features=1024, out_features=256, bias=True)
        (3): Dropout(p=0.2, inplace=False)
      )
      (1): Sequential(
        (0): Linear(in_features=256, out_features=1024, bias=True)
        (1): ReLU()
        (2): Linear(in_features=1024, out_features=256, bias=True)
        (3): Dropout(p=0.2, inplace=False)
      )
      (2): Sequential(
        (0): Linear(in_features=256, out_features=1024, bias=True)
        (1): ReLU()
        (2): Linear(in_features=1024, out_features=256, bias=True)
        (3): Dropout(p=0.2, inplace=False)
      )
    )
    (layer_norms): ModuleList(
      (0): LayerNorm((256,), eps=1e-05, elementwise_affine=True)
      (1): LayerNorm((256,), eps=1e-05, elementwise_affine=True)
      (2): LayerNorm((256,), eps=1e-05, elementwise_affine=True)
    )
  )
  (projection_layer): Linear(in_features=256, out_features=64, bias=False)
)
Model name: gpi_acc_predictor_CL_dropout_encoder_model_seed109
Number of trainable parameters: 3543838
Training for 100 epochs
