…
Max nb101 target value: 0.9409388303756714
Min nb101 target value: 0.09995993723471959
Avg nb101 target value: 0.8968612016542681
Max global target value: 0.9409388303756714
Min global target value: 0.09995993723471959
Avg global target value: 0.8968612016542681
Train size: 40000
Dev size: 5000
Test size: 5000
Max num nodes: 288
Min num nodes: 54
Avg num nodes: 190.43892
0 overlap(s) between train/dev loaders
0 overlap(s) between train/test loaders
0 overlap(s) between dev/test loaders
Initializing gpi_acc_predictor_CL_dropout_encoder_model_seed262
GraphAutoEncoder(
  (embed_layer): CGNodeEmbedding(
    (regular_embed_layer): Embedding(32, 120)
    (weighted_embed_layer): Embedding(32, 110)
    (kernel_embed_layer): Embedding(8, 4)
    (shape_embed_layer): Linear(in_features=6, out_features=8, bias=True)
    (bias_embed_layer): Linear(in_features=2, out_features=2, bias=True)
  )
  (encoder): PreEmbeddedGraphEncoderWithAttention(
    (gnn_layers): ModuleList(
      (0): GINConv(nn=Sequential(
        (0): Linear(in_features=128, out_features=128, bias=True)
        (1): Linear(in_features=128, out_features=128, bias=True)
      ))
      (1): GINConv(nn=Sequential(
        (0): Linear(in_features=128, out_features=128, bias=True)
        (1): Linear(in_features=128, out_features=128, bias=True)
      ))
      (2): GINConv(nn=Sequential(
        (0): Linear(in_features=128, out_features=128, bias=True)
        (1): Linear(in_features=128, out_features=128, bias=True)
      ))
      (3): GINConv(nn=Sequential(
        (0): Linear(in_features=128, out_features=128, bias=True)
        (1): Linear(in_features=128, out_features=128, bias=True)
      ))
      (4): GINConv(nn=Sequential(
        (0): Linear(in_features=128, out_features=128, bias=True)
        (1): Linear(in_features=128, out_features=128, bias=True)
      ))
      (5): GINConv(nn=Sequential(
        (0): Linear(in_features=128, out_features=128, bias=True)
        (1): Linear(in_features=128, out_features=128, bias=True)
      ))
    )
    (activ): ReLU()
    (dropout): Dropout(p=0.4, inplace=False)
    (dropout_attn): Dropout(p=0.2, inplace=False)
    (init_ff): Linear(in_features=256, out_features=128, bias=True)
    (att_mechanism): DoubleHeadedAttention(
      (query_layer): Linear(in_features=128, out_features=128, bias=True)
      (key_layer): Linear(in_features=128, out_features=128, bias=True)
      (value_layer): Linear(in_features=128, out_features=128, bias=True)
      (output_layer): Linear(in_features=128, out_features=128, bias=True)
    )
    (combination_layer): Linear(in_features=256, out_features=128, bias=True)
  )
  (projection_layer): Linear(in_features=256, out_features=64, bias=False)
)
Model name: gpi_acc_predictor_CL_dropout_encoder_model_seed262
Number of trainable parameters: 353822
Training for 60 epochs
Train epoch: 1, loss: -0.9731976670190692, elapsed time: 385.8278396129608, temperature: 0.19695083333333335
Train score at epoch 1: -0.9731976670190692
Saving model to /home/ec2-user/nas-rec-engine/saved_models/gpi_acc_predictor_CL_dropout_encoder_model_seed262_latest.pt, please do not terminate
…
