…
Max nb101 target value: 0.9409388303756714
Min nb101 target value: 0.09995993723471959
Avg nb101 target value: 0.8968612016542681
Max global target value: 0.9409388303756714
Min global target value: 0.09995993723471959
Avg global target value: 0.8968612016542681
Train size: 40000
Dev size: 5000
Test size: 5000
Max num nodes: 288
Min num nodes: 54
Avg num nodes: 190.43892
0 overlap(s) between train/dev loaders
0 overlap(s) between train/test loaders
0 overlap(s) between dev/test loaders
Initializing gpi_acc_predictor_CL_encoder_model_seed1
CGRegressor(
  (embed_layer): CGNodeEmbedding(
    (regular_embed_layer): Embedding(32, 56)
    (weighted_embed_layer): Embedding(32, 46)
    (kernel_embed_layer): Embedding(8, 4)
    (shape_embed_layer): Linear(in_features=6, out_features=8, bias=True)
    (bias_embed_layer): Linear(in_features=2, out_features=2, bias=True)
  )
  (encoder): PreEmbeddedGraphEncoder(
    (gnn_layers): ModuleList(
      (0): GraphConv(64, 64)
      (1): GraphConv(64, 64)
      (2): GraphConv(64, 64)
      (3): GraphConv(64, 64)
      (4): GraphConv(64, 64)
      (5): GraphConv(64, 64)
    )
    (activ): Tanh()
    (dropout): Dropout(p=0.1, inplace=False)
    (init_ff): Linear(in_features=128, out_features=64, bias=True)
  )
  (aggregator): GraphAggregator(
    (gnn_aggr_layer): PreEmbeddedGraphEncoder(
      (gnn_layers): ModuleList(
        (0): GraphConv(64, 64)
      )
      (dropout): Dropout(p=0.0, inplace=False)
      (init_ff): Linear(in_features=128, out_features=64, bias=True)
    )
  )
  (post_proj): Sequential(
    (0): Linear(in_features=64, out_features=64, bias=True)
    (1): Linear(in_features=64, out_features=64, bias=True)
    (2): ReLU()
    (3): Linear(in_features=64, out_features=64, bias=True)
    (4): Linear(in_features=64, out_features=64, bias=True)
  )
  (regressor): Linear(in_features=64, out_features=1, bias=True)
)
Model name: gpi_acc_predictor_CL_encoder_model_seed1
Number of trainable parameters: 94367
Training for 40 epochs
Model name: gpi_acc_predictor_CL_encoder_model_seed1
Saved models dir: /home/ec2-user/nas-rec-engine/saved_models
Log dir: /home/ec2-user/nas-rec-engine/logs
Params: Namespace(device_str=None, seed=1, max_gradient_norm=5.0, logs_dir='/home/e
…
Max nb101 target value: 0.9409388303756714
Min nb101 target value: 0.09995993723471959
Avg nb101 target value: 0.8968612016542681
Max global target value: 0.9409388303756714
Min global target value: 0.09995993723471959
Avg global target value: 0.8968612016542681
Train size: 40000
Dev size: 5000
Test size: 5000
Max num nodes: 288
Min num nodes: 54
Avg num nodes: 190.43892
0 overlap(s) between train/dev loaders
0 overlap(s) between train/test loaders
0 overlap(s) between dev/test loaders
Initializing gpi_acc_predictor_CL_encoder_model_seed1
GraphAutoEncoder(
  (embed_layer): CGNodeEmbedding(
    (regular_embed_layer): Embedding(32, 56)
    (weighted_embed_layer): Embedding(32, 46)
    (kernel_embed_layer): Embedding(8, 4)
    (shape_embed_layer): Linear(in_features=6, out_features=8, bias=True)
    (bias_embed_layer): Linear(in_features=2, out_features=2, bias=True)
  )
  (encoder): PreEmbeddedGraphEncoderWithAttention(
    (gnn_layers): ModuleList(
      (0): GINConv(nn=Sequential(
        (0): Linear(in_features=64, out_features=64, bias=True)
        (1): Linear(in_features=64, out_features=64, bias=True)
      ))
      (1): GINConv(nn=Sequential(
        (0): Linear(in_features=64, out_features=64, bias=True)
        (1): Linear(in_features=64, out_features=64, bias=True)
      ))
      (2): GINConv(nn=Sequential(
        (0): Linear(in_features=64, out_features=64, bias=True)
        (1): Linear(in_features=64, out_features=64, bias=True)
      ))
      (3): GINConv(nn=Sequential(
        (0): Linear(in_features=64, out_features=64, bias=True)
        (1): Linear(in_features=64, out_features=64, bias=True)
      ))
      (4): GINConv(nn=Sequential(
        (0): Linear(in_features=64, out_features=64, bias=True)
        (1): Linear(in_features=64, out_features=64, bias=True)
      ))
      (5): GINConv(nn=Sequential(
        (0): Linear(in_features=64, out_features=64, bias=True)
        (1): Linear(in_features=64, out_features=64, bias=True)
      ))
    )
    (activ): Tanh()
    (dropout): Dropout(p=0.1, inplace=False)
    (init_ff): Linear(in_features=128, out_features=64, bias=True)
    (att_mechanism): DoubleHeadedAttention(
      (query_layer): Linear(in_features=64, out_features=64, bias=True)
      (key_layer): Linear(in_features=64, out_features=64, bias=True)
      (value_layer): Linear(in_features=64, out_features=64, bias=True)
      (output_layer): Linear(in_features=64, out_features=64, bias=True)
    )
    (combination_layer): Linear(in_features=128, out_features=64, bias=True)
  )
)
Model name: gpi_acc_predictor_CL_encoder_model_seed1
Number of trainable parameters: 86430
Training for 40 epochs
Model name: gpi_acc_predictor_CL_encoder_model_seed1
Saved models dir: /home/ec2-user/nas-rec-engine/saved_models
Log dir: /home/ec2-user/nas-rec-engine/logs
Params: Namespace(device_str=None, seed=1, max_gradient_norm=5.0, logs_dir='/
…
Max nb101 target value: 0.9409388303756714
Min nb101 target value: 0.09995993723471959
Avg nb101 target value: 0.8968612016542681
Max global target value: 0.9409388303756714
Min global target value: 0.09995993723471959
Avg global target value: 0.8968612016542681
Train size: 40000
Dev size: 5000
Test size: 5000
Max num nodes: 288
Min num nodes: 54
Avg num nodes: 190.43892
0 overlap(s) between train/dev loaders
0 overlap(s) between train/test loaders
0 overlap(s) between dev/test loaders
Initializing gpi_acc_predictor_CL_encoder_model_seed1
GraphAutoEncoder(
  (embed_layer): CGNodeEmbedding(
    (regular_embed_layer): Embedding(32, 56)
    (weighted_embed_layer): Embedding(32, 46)
    (kernel_embed_layer): Embedding(8, 4)
    (shape_embed_layer): Linear(in_features=6, out_features=8, bias=True)
    (bias_embed_layer): Linear(in_features=2, out_features=2, bias=True)
  )
  (encoder): PreEmbeddedGraphEncoderWithAttention(
    (gnn_layers): ModuleList(
      (0): GINConv(nn=Sequential(
        (0): Linear(in_features=64, out_features=64, bias=True)
        (1): Linear(in_features=64, out_features=64, bias=True)
      ))
      (1): GINConv(nn=Sequential(
        (0): Linear(in_features=64, out_features=64, bias=True)
        (1): Linear(in_features=64, out_features=64, bias=True)
      ))
      (2): GINConv(nn=Sequential(
        (0): Linear(in_features=64, out_features=64, bias=True)
        (1): Linear(in_features=64, out_features=64, bias=True)
      ))
      (3): GINConv(nn=Sequential(
        (0): Linear(in_features=64, out_features=64, bias=True)
        (1): Linear(in_features=64, out_features=64, bias=True)
      ))
      (4): GINConv(nn=Sequential(
        (0): Linear(in_features=64, out_features=64, bias=True)
        (1): Linear(in_features=64, out_features=64, bias=True)
      ))
      (5): GINConv(nn=Sequential(
        (0): Linear(in_features=64, out_features=64, bias=True)
        (1): Linear(in_features=64, out_features=64, bias=True)
      ))
    )
    (activ): Tanh()
    (dropout): Dropout(p=0.1, inplace=False)
    (init_ff): Linear(in_features=128, out_features=64, bias=True)
    (att_mechanism): DoubleHeadedAttention(
      (query_layer): Linear(in_features=64, out_features=64, bias=True)
      (key_layer): Linear(in_features=64, out_features=64, bias=True)
      (value_layer): Linear(in_features=64, out_features=64, bias=True)
      (output_layer): Linear(in_features=64, out_features=64, bias=True)
    )
    (combination_layer): Linear(in_features=128, out_features=64, bias=True)
  )
  (projection_layer): Linear(in_features=64, out_features=32, bias=True)
)
Model name: gpi_acc_predictor_CL_encoder_model_seed1
Number of trainable parameters: 88510
Training for 40 epochs
Model name: gpi_acc_predictor_CL_encoder_model_seed1
Saved models dir: /home/ec2-user/nas-rec-engine/saved_models
Log dir: /home/ec2-user/nas-rec-engine/logs
Params: Namespace(device_str=None, seed=1, max_gradient_norm=5.0, logs_dir='/home/
…
Max nb101 target value: 0.9409388303756714
Min nb101 target value: 0.09995993723471959
Avg nb101 target value: 0.8968612016542681
Max global target value: 0.9409388303756714
Min global target value: 0.09995993723471959
Avg global target value: 0.8968612016542681
Train size: 40000
Dev size: 5000
Test size: 5000
Max num nodes: 288
Min num nodes: 54
Avg num nodes: 190.43892
0 overlap(s) between train/dev loaders
0 overlap(s) between train/test loaders
0 overlap(s) between dev/test loaders
Initializing gpi_acc_predictor_CL_encoder_model_seed1
GraphAutoEncoder(
  (embed_layer): CGNodeEmbedding(
    (regular_embed_layer): Embedding(32, 56)
    (weighted_embed_layer): Embedding(32, 46)
    (kernel_embed_layer): Embedding(8, 4)
    (shape_embed_layer): Linear(in_features=6, out_features=8, bias=True)
    (bias_embed_layer): Linear(in_features=2, out_features=2, bias=True)
  )
  (encoder): PreEmbeddedGraphEncoderWithAttention(
    (gnn_layers): ModuleList(
      (0): GINConv(nn=Sequential(
        (0): Linear(in_features=64, out_features=64, bias=True)
        (1): Linear(in_features=64, out_features=64, bias=True)
      ))
      (1): GINConv(nn=Sequential(
        (0): Linear(in_features=64, out_features=64, bias=True)
        (1): Linear(in_features=64, out_features=64, bias=True)
      ))
      (2): GINConv(nn=Sequential(
        (0): Linear(in_features=64, out_features=64, bias=True)
        (1): Linear(in_features=64, out_features=64, bias=True)
      ))
      (3): GINConv(nn=Sequential(
        (0): Linear(in_features=64, out_features=64, bias=True)
        (1): Linear(in_features=64, out_features=64, bias=True)
      ))
      (4): GINConv(nn=Sequential(
        (0): Linear(in_features=64, out_features=64, bias=True)
        (1): Linear(in_features=64, out_features=64, bias=True)
      ))
      (5): GINConv(nn=Sequential(
        (0): Linear(in_features=64, out_features=64, bias=True)
        (1): Linear(in_features=64, out_features=64, bias=True)
      ))
    )
    (activ): Tanh()
    (dropout): Dropout(p=0.1, inplace=False)
    (init_ff): Linear(in_features=128, out_features=64, bias=True)
    (att_mechanism): DoubleHeadedAttention(
      (query_layer): Linear(in_features=64, out_features=64, bias=True)
      (key_layer): Linear(in_features=64, out_features=64, bias=True)
      (value_layer): Linear(in_features=64, out_features=64, bias=True)
      (output_layer): Linear(in_features=64, out_features=64, bias=True)
    )
    (combination_layer): Linear(in_features=128, out_features=64, bias=True)
  )
  (projection_layer): Linear(in_features=128, out_features=32, bias=True)
)
Model name: gpi_acc_predictor_CL_encoder_model_seed1
Number of trainable parameters: 90558
Training for 40 epochs
Model name: gpi_acc_predictor_CL_encoder_model_seed1
Saved models dir: /home/ec2-user/nas-rec-engine/saved_models
Log dir: /home/ec2-user/nas-rec-engine/logs
Params: Namespace(device_str=None, seed=1, max_gradient_norm=5.0, logs_dir='/home
…
Max nb101 target value: 0.9409388303756714
Min nb101 target value: 0.09995993723471959
Avg nb101 target value: 0.8968612016542681
Max global target value: 0.9409388303756714
Min global target value: 0.09995993723471959
Avg global target value: 0.8968612016542681
Train size: 40000
Dev size: 5000
Test size: 5000
Max num nodes: 288
Min num nodes: 54
Avg num nodes: 190.43892
0 overlap(s) between train/dev loaders
0 overlap(s) between train/test loaders
0 overlap(s) between dev/test loaders
Initializing gpi_acc_predictor_CL_encoder_model_seed1
GraphAutoEncoder(
  (embed_layer): CGNodeEmbedding(
    (regular_embed_layer): Embedding(32, 56)
    (weighted_embed_layer): Embedding(32, 46)
    (kernel_embed_layer): Embedding(8, 4)
    (shape_embed_layer): Linear(in_features=6, out_features=8, bias=True)
    (bias_embed_layer): Linear(in_features=2, out_features=2, bias=True)
  )
  (encoder): PreEmbeddedGraphEncoderWithAttention(
    (gnn_layers): ModuleList(
      (0): GINConv(nn=Sequential(
        (0): Linear(in_features=64, out_features=64, bias=True)
        (1): Linear(in_features=64, out_features=64, bias=True)
      ))
      (1): GINConv(nn=Sequential(
        (0): Linear(in_features=64, out_features=64, bias=True)
        (1): Linear(in_features=64, out_features=64, bias=True)
      ))
      (2): GINConv(nn=Sequential(
        (0): Linear(in_features=64, out_features=64, bias=True)
        (1): Linear(in_features=64, out_features=64, bias=True)
      ))
      (3): GINConv(nn=Sequential(
        (0): Linear(in_features=64, out_features=64, bias=True)
        (1): Linear(in_features=64, out_features=64, bias=True)
      ))
      (4): GINConv(nn=Sequential(
        (0): Linear(in_features=64, out_features=64, bias=True)
        (1): Linear(in_features=64, out_features=64, bias=True)
      ))
      (5): GINConv(nn=Sequential(
        (0): Linear(in_features=64, out_features=64, bias=True)
        (1): Linear(in_features=64, out_features=64, bias=True)
      ))
    )
    (activ): Tanh()
    (dropout): Dropout(p=0.1, inplace=False)
    (init_ff): Linear(in_features=128, out_features=64, bias=True)
    (att_mechanism): DoubleHeadedAttention(
      (query_layer): Linear(in_features=64, out_features=64, bias=True)
      (key_layer): Linear(in_features=64, out_features=64, bias=True)
      (value_layer): Linear(in_features=64, out_features=64, bias=True)
      (output_layer): Linear(in_features=64, out_features=64, bias=True)
    )
    (combination_layer): Linear(in_features=128, out_features=64, bias=True)
  )
  (projection_layer): Linear(in_features=64, out_features=32, bias=False)
)
Model name: gpi_acc_predictor_CL_encoder_model_seed1
Number of trainable parameters: 88478
Training for 40 epochs
Model name: gpi_acc_predictor_CL_encoder_model_seed1
Saved models dir: /home/ec2-user/nas-rec-engine/saved_models
Log dir: /home/ec2-user/nas-rec-engine/logs
Params: Namespace(device_str=None, seed=1, max_gradient_norm=5.0, logs_dir='/home
…
Max nb101 target value: 0.9409388303756714
Min nb101 target value: 0.09995993723471959
Avg nb101 target value: 0.8968612016542681
Max global target value: 0.9409388303756714
Min global target value: 0.09995993723471959
Avg global target value: 0.8968612016542681
Train size: 40000
Dev size: 5000
Test size: 5000
Max num nodes: 288
Min num nodes: 54
Avg num nodes: 190.43892
0 overlap(s) between train/dev loaders
0 overlap(s) between train/test loaders
0 overlap(s) between dev/test loaders
Initializing gpi_acc_predictor_CL_encoder_model_seed1
GraphAutoEncoder(
  (embed_layer): CGNodeEmbedding(
    (regular_embed_layer): Embedding(32, 56)
    (weighted_embed_layer): Embedding(32, 46)
    (kernel_embed_layer): Embedding(8, 4)
    (shape_embed_layer): Linear(in_features=6, out_features=8, bias=True)
    (bias_embed_layer): Linear(in_features=2, out_features=2, bias=True)
  )
  (encoder): PreEmbeddedGraphEncoderWithAttention(
    (gnn_layers): ModuleList(
      (0): GINConv(nn=Sequential(
        (0): Linear(in_features=64, out_features=64, bias=True)
        (1): Linear(in_features=64, out_features=64, bias=True)
      ))
      (1): GINConv(nn=Sequential(
        (0): Linear(in_features=64, out_features=64, bias=True)
        (1): Linear(in_features=64, out_features=64, bias=True)
      ))
      (2): GINConv(nn=Sequential(
        (0): Linear(in_features=64, out_features=64, bias=True)
        (1): Linear(in_features=64, out_features=64, bias=True)
      ))
      (3): GINConv(nn=Sequential(
        (0): Linear(in_features=64, out_features=64, bias=True)
        (1): Linear(in_features=64, out_features=64, bias=True)
      ))
      (4): GINConv(nn=Sequential(
        (0): Linear(in_features=64, out_features=64, bias=True)
        (1): Linear(in_features=64, out_features=64, bias=True)
      ))
      (5): GINConv(nn=Sequential(
        (0): Linear(in_features=64, out_features=64, bias=True)
        (1): Linear(in_features=64, out_features=64, bias=True)
      ))
    )
    (activ): Tanh()
    (dropout): Dropout(p=0.1, inplace=False)
    (init_ff): Linear(in_features=128, out_features=64, bias=True)
    (att_mechanism): DoubleHeadedAttention(
      (query_layer): Linear(in_features=64, out_features=64, bias=True)
      (key_layer): Linear(in_features=64, out_features=64, bias=True)
      (value_layer): Linear(in_features=64, out_features=64, bias=True)
      (output_layer): Linear(in_features=64, out_features=64, bias=True)
    )
    (combination_layer): Linear(in_features=128, out_features=64, bias=True)
  )
  (projection_layer): Linear(in_features=128, out_features=32, bias=False)
)
Model name: gpi_acc_predictor_CL_encoder_model_seed1
Number of trainable parameters: 90526
Training for 40 epochs
Model name: gpi_acc_predictor_CL_encoder_model_seed1
Saved models dir: /home/ec2-user/nas-rec-engine/saved_models
Log dir: /home/ec2-user/nas-rec-engine/logs
Params: Namespace(device_str=None, seed=1, max_gradient_norm=5.0, logs_dir='/hom
…
Max nb101 target value: 0.9409388303756714
Min nb101 target value: 0.09995993723471959
Avg nb101 target value: 0.8968612016542681
Max global target value: 0.9409388303756714
Min global target value: 0.09995993723471959
Avg global target value: 0.8968612016542681
Train size: 40000
Dev size: 5000
Test size: 5000
Max num nodes: 288
Min num nodes: 54
Avg num nodes: 190.43892
0 overlap(s) between train/dev loaders
0 overlap(s) between train/test loaders
0 overlap(s) between dev/test loaders
Initializing gpi_acc_predictor_CL_encoder_model_seed1
GraphAutoEncoder(
  (embed_layer): CGNodeEmbedding(
    (regular_embed_layer): Embedding(32, 120)
    (weighted_embed_layer): Embedding(32, 110)
    (kernel_embed_layer): Embedding(8, 4)
    (shape_embed_layer): Linear(in_features=6, out_features=8, bias=True)
    (bias_embed_layer): Linear(in_features=2, out_features=2, bias=True)
  )
  (encoder): PreEmbeddedGraphEncoderWithAttention(
    (gnn_layers): ModuleList(
      (0): GINConv(nn=Sequential(
        (0): Linear(in_features=128, out_features=128, bias=True)
        (1): Linear(in_features=128, out_features=128, bias=True)
      ))
      (1): GINConv(nn=Sequential(
        (0): Linear(in_features=128, out_features=128, bias=True)
        (1): Linear(in_features=128, out_features=128, bias=True)
      ))
      (2): GINConv(nn=Sequential(
        (0): Linear(in_features=128, out_features=128, bias=True)
        (1): Linear(in_features=128, out_features=128, bias=True)
      ))
      (3): GINConv(nn=Sequential(
        (0): Linear(in_features=128, out_features=128, bias=True)
        (1): Linear(in_features=128, out_features=128, bias=True)
      ))
      (4): GINConv(nn=Sequential(
        (0): Linear(in_features=128, out_features=128, bias=True)
        (1): Linear(in_features=128, out_features=128, bias=True)
      ))
      (5): GINConv(nn=Sequential(
        (0): Linear(in_features=128, out_features=128, bias=True)
        (1): Linear(in_features=128, out_features=128, bias=True)
      ))
    )
    (activ): Tanh()
    (dropout): Dropout(p=0.15, inplace=False)
    (init_ff): Linear(in_features=256, out_features=128, bias=True)
    (att_mechanism): DoubleHeadedAttention(
      (query_layer): Linear(in_features=128, out_features=128, bias=True)
      (key_layer): Linear(in_features=128, out_features=128, bias=True)
      (value_layer): Linear(in_features=128, out_features=128, bias=True)
      (output_layer): Linear(in_features=128, out_features=128, bias=True)
    )
    (combination_layer): Linear(in_features=256, out_features=128, bias=True)
  )
  (projection_layer): Linear(in_features=256, out_features=32, bias=False)
)
Model name: gpi_acc_predictor_CL_encoder_model_seed1
Number of trainable parameters: 345630
Training for 40 epochs
Train epoch: 1, loss: -0.06266245746016502, elapsed time: 233.0687279701233
Train score at epoch 1: -0.06266245746016502
Saving model to /home/ec2-user/nas-rec-engine/saved_models/gpi_acc_predictor_CL_encoder_model_seed1_latest.pt, please do not terminate
…
Max nb101 target value: 0.9409388303756714
Min nb101 target value: 0.09995993723471959
Avg nb101 target value: 0.8968612016542681
Max global target value: 0.9409388303756714
Min global target value: 0.09995993723471959
Avg global target value: 0.8968612016542681
Train size: 40000
Dev size: 5000
Test size: 5000
Max num nodes: 288
Min num nodes: 54
Avg num nodes: 190.43892
0 overlap(s) between train/dev loaders
0 overlap(s) between train/test loaders
0 overlap(s) between dev/test loaders
Initializing gpi_acc_predictor_CL_encoder_model_seed1
GraphAutoEncoder(
  (embed_layer): CGNodeEmbedding(
    (regular_embed_layer): Embedding(32, 120)
    (weighted_embed_layer): Embedding(32, 110)
    (kernel_embed_layer): Embedding(8, 4)
    (shape_embed_layer): Linear(in_features=6, out_features=8, bias=True)
    (bias_embed_layer): Linear(in_features=2, out_features=2, bias=True)
  )
  (encoder): PreEmbeddedGraphEncoderWithAttention(
    (gnn_layers): ModuleList(
      (0): GINConv(nn=Sequential(
        (0): Linear(in_features=128, out_features=128, bias=True)
        (1): Linear(in_features=128, out_features=128, bias=True)
      ))
      (1): GINConv(nn=Sequential(
        (0): Linear(in_features=128, out_features=128, bias=True)
        (1): Linear(in_features=128, out_features=128, bias=True)
      ))
      (2): GINConv(nn=Sequential(
        (0): Linear(in_features=128, out_features=128, bias=True)
        (1): Linear(in_features=128, out_features=128, bias=True)
      ))
      (3): GINConv(nn=Sequential(
        (0): Linear(in_features=128, out_features=128, bias=True)
        (1): Linear(in_features=128, out_features=128, bias=True)
      ))
      (4): GINConv(nn=Sequential(
        (0): Linear(in_features=128, out_features=128, bias=True)
        (1): Linear(in_features=128, out_features=128, bias=True)
      ))
      (5): GINConv(nn=Sequential(
        (0): Linear(in_features=128, out_features=128, bias=True)
        (1): Linear(in_features=128, out_features=128, bias=True)
      ))
    )
    (activ): ReLU()
    (dropout): Dropout(p=0.2, inplace=False)
    (init_ff): Linear(in_features=256, out_features=128, bias=True)
    (att_mechanism): DoubleHeadedAttention(
      (query_layer): Linear(in_features=128, out_features=128, bias=True)
      (key_layer): Linear(in_features=128, out_features=128, bias=True)
      (value_layer): Linear(in_features=128, out_features=128, bias=True)
      (output_layer): Linear(in_features=128, out_features=128, bias=True)
    )
    (combination_layer): Linear(in_features=256, out_features=128, bias=True)
  )
  (projection_layer): Linear(in_features=256, out_features=64, bias=False)
)
Model name: gpi_acc_predictor_CL_encoder_model_seed1
Number of trainable parameters: 353822
Training for 60 epochs
Train epoch: 1, loss: -0.9821116151571274, elapsed time: 398.39732098579407, temperature: 0.19695083333333335
Train score at epoch 1: -0.9821116151571274
Saving model to /home/ec2-user/nas-rec-engine/saved_models/gpi_acc_predictor_CL_encoder_model_seed1_latest.pt, please do not terminate
…
