…
Avg ofa_resnet target value: 0.7819411822222215
Max global target value: 0.9437333333333333
Min global target value: 0.09995993723471959
Avg global target value: 0.8787893355136353
Train size: 51278
Dev size: 6409
Test size: 6409
Max num nodes: 336
Min num nodes: 54
Avg num nodes: 191.45590988517225
0 overlap(s) between train/dev loaders
0 overlap(s) between train/test loaders
0 overlap(s) between dev/test loaders
Initializing gpi_acc_predictor_CL_dropout_encoder_regression_model_seed109
AggregateCGRegressor(
  (graph_encoder): GraphAutoEncoder(
    (embed_layer): CGNodeEmbedding(
      (regular_embed_layer): Embedding(32, 120)
      (weighted_embed_layer): Embedding(32, 110)
      (kernel_embed_layer): Embedding(8, 4)
      (shape_embed_layer): Linear(in_features=6, out_features=8, bias=True)
      (bias_embed_layer): Linear(in_features=2, out_features=2, bias=True)
    )
    (encoder): PreEmbeddedGraphEncoderWithAttention(
      (gnn_layers): ModuleList(
        (0): GINConv(nn=Sequential(
          (0): Linear(in_features=128, out_features=128, bias=True)
          (1): Linear(in_features=128, out_features=128, bias=True)
        ))
        (1): GINConv(nn=Sequential(
          (0): Linear(in_features=128, out_features=128, bias=True)
          (1): Linear(in_features=128, out_features=128, bias=True)
        ))
        (2): GINConv(nn=Sequential(
          (0): Linear(in_features=128, out_features=128, bias=True)
          (1): Linear(in_features=128, out_features=128, bias=True)
        ))
        (3): GINConv(nn=Sequential(
          (0): Linear(in_features=128, out_features=128, bias=True)
          (1): Linear(in_features=128, out_features=128, bias=True)
        ))
        (4): GINConv(nn=Sequential(
          (0): Linear(in_features=128, out_features=128, bias=True)
          (1): Linear(in_features=128, out_features=128, bias=True)
        ))
        (5): GINConv(nn=Sequential(
          (0): Linear(in_features=128, out_features=128, bias=True)
          (1): Linear(in_features=128, out_features=128, bias=True)
        ))
      )
      (activ): ReLU()
      (dropout): Dropout(p=0.4, inplace=False)
      (dropout_attn): Dropout(p=0.2, inplace=False)
      (init_ff): Linear(in_features=256, out_features=128, bias=True)
      (att_mechanism): DoubleHeadedAttention(
        (query_layer): Linear(in_features=128, out_features=128, bias=True)
        (key_layer): Linear(in_features=128, out_features=128, bias=True)
        (value_layer): Linear(in_features=128, out_features=128, bias=True)
        (output_layer): Linear(in_features=128, out_features=128, bias=True)
      )
      (combination_layer): Linear(in_features=256, out_features=128, bias=True)
    )
    (projection_layer): Linear(in_features=256, out_features=64, bias=False)
  )
  (aggregator): GraphAggregator(
    (gnn_aggr_layer): PreEmbeddedGraphEncoder(
      (gnn_layers): ModuleList(
        (0): GraphConv(128, 128)
      )
      (dropout): Dropout(p=0.0, inplace=False)
      (init_ff): Linear(in_features=256, out_features=128, bias=True)
    )
  )
  (post_proj): Sequential(
    (0): Linear(in_features=128, out_features=128, bias=True)
    (1): Linear(in_features=128, out_features=256, bias=True)
    (2): ReLU()
    (3): Linear(in_features=256, out_features=128, bias=True)
    (4): ReLU()
    (5): Linear(in_features=128, out_features=128, bias=True)
  )
  (regressor): Linear(in_features=128, out_features=1, bias=True)
)
Model name: gpi_acc_predictor_CL_dropout_encoder_regression_model_seed109
Number of trainable parameters: 518687
Training for 60 epochs
Model name: gpi_acc_predictor_CL_dropout_encoder_regression_model_seed109
Saved models dir: /home/ec2-user/nas-rec-engine/saved_models
Log dir: /home/ec2-user/nas-rec-engine/logs
Params: Namespace(device_str=None, seed
…
Avg ofa_resnet target value: 0.7819411822222215
Max global target value: 0.9437333333333333
Min global target value: 0.09995993723471959
Avg global target value: 0.8787893355136353
Train size: 51278
Dev size: 6409
Test size: 6409
Max num nodes: 336
Min num nodes: 54
Avg num nodes: 191.45590988517225
0 overlap(s) between train/dev loaders
0 overlap(s) between train/test loaders
0 overlap(s) between dev/test loaders
Initializing gpi_acc_predictor_CL_dropout_encoder_regression_model_seed109
AggregateCGRegressor(
  (graph_encoder): GraphAutoEncoder(
    (embed_layer): CGNodeEmbedding(
      (regular_embed_layer): Embedding(32, 120)
      (weighted_embed_layer): Embedding(32, 110)
      (kernel_embed_layer): Embedding(8, 4)
      (shape_embed_layer): Linear(in_features=6, out_features=8, bias=True)
      (bias_embed_layer): Linear(in_features=2, out_features=2, bias=True)
    )
    (encoder): PreEmbeddedGraphEncoderWithAttention(
      (gnn_layers): ModuleList(
        (0): GINConv(nn=Sequential(
          (0): Linear(in_features=128, out_features=128, bias=True)
          (1): Linear(in_features=128, out_features=128, bias=True)
        ))
        (1): GINConv(nn=Sequential(
          (0): Linear(in_features=128, out_features=128, bias=True)
          (1): Linear(in_features=128, out_features=128, bias=True)
        ))
        (2): GINConv(nn=Sequential(
          (0): Linear(in_features=128, out_features=128, bias=True)
          (1): Linear(in_features=128, out_features=128, bias=True)
        ))
        (3): GINConv(nn=Sequential(
          (0): Linear(in_features=128, out_features=128, bias=True)
          (1): Linear(in_features=128, out_features=128, bias=True)
        ))
        (4): GINConv(nn=Sequential(
          (0): Linear(in_features=128, out_features=128, bias=True)
          (1): Linear(in_features=128, out_features=128, bias=True)
        ))
        (5): GINConv(nn=Sequential(
          (0): Linear(in_features=128, out_features=128, bias=True)
          (1): Linear(in_features=128, out_features=128, bias=True)
        ))
      )
      (activ): ReLU()
      (dropout): Dropout(p=0.4, inplace=False)
      (dropout_attn): Dropout(p=0.2, inplace=False)
      (init_ff): Linear(in_features=256, out_features=128, bias=True)
      (att_mechanism): DoubleHeadedAttention(
        (query_layer): Linear(in_features=128, out_features=128, bias=True)
        (key_layer): Linear(in_features=128, out_features=128, bias=True)
        (value_layer): Linear(in_features=128, out_features=128, bias=True)
        (output_layer): Linear(in_features=128, out_features=128, bias=True)
      )
      (combination_layer): Linear(in_features=256, out_features=128, bias=True)
    )
    (projection_layer): Linear(in_features=256, out_features=64, bias=False)
  )
  (aggregator): GraphAggregator(
    (gnn_aggr_layer): PreEmbeddedGraphEncoder(
      (gnn_layers): ModuleList(
        (0): GraphConv(256, 256)
      )
      (dropout): Dropout(p=0.0, inplace=False)
      (init_ff): Linear(in_features=512, out_features=256, bias=True)
    )
  )
  (post_proj): Sequential(
    (0): Linear(in_features=256, out_features=256, bias=True)
    (1): Linear(in_features=256, out_features=512, bias=True)
    (2): ReLU()
    (3): Linear(in_features=512, out_features=256, bias=True)
    (4): ReLU()
    (5): Linear(in_features=256, out_features=256, bias=True)
  )
  (regressor): Linear(in_features=256, out_features=1, bias=True)
)
Model name: gpi_acc_predictor_CL_dropout_encoder_regression_model_seed109
Number of trainable parameters: 1011231
Training for 60 epochs
Train epoch: 1, loss: 0.07776221370714298, elapsed time: 121.31963276863098
Train performance: {'mean_square_error': 0.07776221039571223, 'mean_absolute_error': 0.13834988334955345, 'max_error': 7.540251910686493, 'me
…
